CNN/model.tflite (tflite, 709016 bytes, 9 tensors)

sequential/conv2d/BiasAdd/ReadVariableOp f4 [32]
-0.012485402 0.034302898 -0.0023525953 -0.08338249 0.037362278 0.015727766 -0.037633315 -0.08953133
-0.0018076731 0.0018235752 0.018092422 0.02994826 -0.020624068 -0.004657263 0.006157245 -0.00524939
-0.0714853 0.004440417 0.020175867 -0.032420762 0.01459115 0.032493964 -0.005936455 -0.017096724
0.041016065 0.009889592 0.060188226 -0.051638685 0.008272201 -0.052704483 0.00601411 0.015977016
00000000: 928f 4cbc 3281 0c3d 002e 1abb 70c4 aabd
00000010: 3009 193d 84d7 803c 6425 1abd 345c b7bd
00000020: 72ef ecba 0805 ef3a 8f36 943c 0e56 f53c
00000030: cef3 a8bc f49b 98bb b7c2 c93b 1303 acbb
00000040: e366 92bd eb80 913b dc47 a53c a2cb 04bd
00000050: b80f 6f3c 6418 053d 9886 c2bb 6e0e 8cbc
00000060: 7600 283d f507 223c ee87 763d 1683 53bd
00000070: 2088 073c a8e0 57bd 0312 c53b 3be2 823c

sequential/conv2d_1/BiasAdd/ReadVariableOp f4 [32]
-0.017467828 -0.009521434 0.027381258 0.0005127176 -0.009174559 -0.022924587 -0.03592974 0.012791871
-0.009748986 -0.050233394 0.036186136 0.041857474 -0.012933457 -0.019402558 0.00029529605 0.00021860014
-0.021749318 -0.023779815 0.025069045 -0.03937258 0.04456826 -0.015456222 -0.030786166 0.0034185713
0.040728312 -0.033297215 -0.021589521 -0.022226818 -0.047172096 -0.058033083 0.051939428 -0.0067336997
00000000: b118 8fbc caff 1bbc a94e e03c e567 063a
00000010: e450 16bc 58cc bbbc 102b 13bd ff94 513c
00000020: 36ba 1fbc 88c1 4dbd ea37 143d be72 2b3d
00000030: dae6 53bc 1df2 9ebc f7d1 9a39 0738 6539
00000040: a02b b2bc e3cd c2bc 995d cd3c 2445 21bd
00000050: 358d 363d 183c 7dbc 4533 fcbc 1c0a 603b
00000060: bbd2 263d a962 08bd 82dc b0bc 0415 b6bc
00000070: 8737 41bd 19b4 6dbd 70be 543d 5ea6 dcbb

sequential/conv2d_2/BiasAdd/ReadVariableOp f4 [64]
-0.0127832955 -0.013928296 -0.0008152642 -0.009387977 0.009209236 -0.016267532 -0.0062148734 0.0122804195
0.025022818 0.05049844 0.024469173 0.024539862 0.017833868 0.015466784 0.012200592 0.0066725016
0.010433176 -0.0040049427 -0.035033163 0.019358683 0.0130412085 0.025091872 0.00076616573 -0.0032235363
0.0015847941 0.02751127 0.010931941 0.0067489822 0.006144474 -0.013974848 0.021615822 -0.013393596
0.046410553 -0.04002376 0.020359127 0.04702411 -0.010687703 -0.00951007 -0.021961428 0.031266805
0.01635784 0.002223885 -0.007494714 0.004441565 0.022174735 0.011208926 0.009001297 -0.035009578
0.059173033 -0.014930416 -0.017733373 -0.0068789395 -0.024650859 0.040307213 -0.0014304463 0.015198433
0.014669863 0.026778502 0.014099339 -0.024183383 0.054433174 -0.014624777 -0.020674285 0.011750728
00000000: 0771 51bc 8233 64bc 74b7 55ba 08d0 19bc
00000010: 56e2 163c 7d43 85bc 23a6 cbbb d033 493c
00000020: a7fc cc3c 74d7 4e3d 9373 c83c d207 c93c
00000030: 5518 923c 6568 7d3c fee4 473c 00a5 da3b
00000040: e9ef 2a3c e53b 83bb ef7e 0fbd 1a96 9e3c
00000050: cbaa 553c 788d cd3c 83d8 483a f741 53bb
00000060: deb8 cf3a 515f e13c e21b 333c 9126 dd3b
00000070: 9557 c93b c3f6 64bc aa13 b13c d070 5bbc
00000080: fe18 3e3d f4ef 23bd 2fc8 a63c 5a9c 403d
00000090: 7a1b 2fbc 20d0 1bbc 74e8 b3bc 9f11 003d
000000a0: e000 863c 99be 113b 3896 f5bb 8c8a 913b
000000b0: caa7 b53c a5a5 373c 2d7a 133c 3466 0fbd
000000c0: 6c5f 723d b49e 74bc 9445 91bc ba68 e1bb
000000d0: 99f0 c9bc 2d19 253d d07d bbba d902 793c
000000e0: dd59 703c 975e db3c ea00 673c 3b1c c6bc
000000f0: 52f5 5e3d c39c 6fbc 1e5d a9bc 2086 403c

sequential/conv2d/Conv2D f4 [32, 3, 3, 3]
-0.01578135 0.10845647 -0.10573266 0.051356316 -0.13532199 -0.062713645 0.017321743 0.118642166
0.05792627 0.2013824 0.21332769 0.0695708 0.14522412 0.18962952 0.11890887 -0.06519652
0.011653094 0.056616556 -0.141457 -0.18866451 -0.17126136 -0.041462377 -0.0054125804 -0.045594756
-0.103927314 -0.09361919 -0.018987013 0.07238386 -0.119649194 -0.06737418 -0.036084097 -0.084750704
0.123395 0.014731683 0.023483748 0.02420578 -0.1434856 -0.023677997 0.012803572 -0.06894999
0.11042117 0.0036878604 -0.17943102 -0.11436317 -0.15087631 -0.107018396 0.015058126 -0.06750442
0.07607561 0.105823025 0.14739522 -0.010768491 0.054863922 -0.02451449 -0.1804583 -0.0831111
-0.07368625 -0.117508605 0.06425421 -0.035809774 -0.06530579 -0.012606534 0.107149564 -0.1260498
-0.17398317 -0.17532147 0.07846776 0.032896716 -0.05841267 0.13910197 0.18245794 -0.0662184
0.126279 0.13871704 -0.038868956 0.13619754 -0.10402442 0.049114298 0.2164094 0.23472436
0.17722912 0.09920581 -0.08111821 -0.0060834372 0.083502285 0.026202375 -0.035978526 -0.18903993
-0.11867959 -0.13432206 0.15925065 0.02480125 0.16884257 0.053791266 0.082742795 -0.010668885
0.073552184 0.124140926 0.11774012 0.2022096 0.17463662 0.14083788 -0.109412186 0.09217531
-0.012872283 0.19221072 0.17435426 0.05519612 -0.054680597 0.04276094 9.554143e-05 0.069969125
0.12706032 0.037997674 0.015559664 -0.10085378 -0.065272056 -0.13191786 -0.0565736 -0.00055767945
-0.1319194 -0.1317738 -0.090872824 -0.117577404 0.07356675 -0.07232298 0.08317673 -0.068288065
-0.09340138 -0.14452362 0.070948035 -0.027870795 0.18613735 0.17519741 0.1934085 0.047143046
0.10127432 -0.024959259 0.04380454 0.16154286 0.16934858 0.1139434 0.023813937 -0.113782324
0.045651875 -0.076085776 -0.055056967 0.06370234 -0.0950007 0.12151378 -0.13967024 -0.17672953
-0.011679426 -0.0057492726 -0.17610143 -0.15034176 -0.022957217 -0.00837108 0.017445935 0.043228853
0.00082647096 -0.111148626 0.16018584 0.079517975 0.07185411 -0.05256679 0.066765085 -0.0951351
0.026715966 0.124661386 0.062868625 0.02602303 0.006642513 -0.024054104 0.07570116 -0.025883267
0.053769253 -0.029093832 0.03461053 -0.011418689 0.10274144 0.11725655 0.10977139 -0.09280063
0.032236144 -0.13430308 -0.11188146 0.047201395 -0.1569077 -0.12364212 0.09689359 -0.096635416
0.14905077 0.07671377 0.030196995 0.11988696 0.21283954 0.20933224 0.008230356 0.00046006573
-0.083869934 -0.09498855 0.027309211 0.08410703 0.1858449 0.19806218 -0.06868686 0.12740088
0.015082849 0.15633278 0.08528996 0.14822009 0.096692264 0.018732354 0.1520356 0.19820824
0.23521695 0.2016166 0.22528635 0.09999103 0.11387938 0.032186538 0.051422615 0.005335162
0.11976374 0.08639503 0.16592778 -0.036836687 -0.13487144 0.025409753 -0.14286876 -0.121730395
0.027372388 -0.065879926 0.045952886 -0.14415911 0.018130621 -0.13195585 -0.24544874 -0.25603512
-0.036821965 0.042997073 -0.057829287 -0.17819098 -0.17702457 -0.11524393 0.09151514 0.09382958
-0.030489989 -0.051354226 0.037039008 0.033554893 -0.1634419 -0.11715598 0.01316102 0.1831493
00000000: e447 81bc 6d1e de3d 5d8a d8bd 005b 523d
00000010: d991 0abe 0370 80bd 54e6 8d3c aafa f23d
00000020: 1944 6d3d 3037 4e3e 9372 5a3e 237b 8e3d
00000030: a2b5 143e 3e2e 423e 7e86 f33d c185 85bd
00000040: 9eec 3e3c c3e6 673d 1bda 10be 4531 41be
00000050: 235f 2fbe 74d4 29bd 045c b1bb 91c1 3abd
00000060: d8d7 d4bd 6bbb bfbd a78a 9bbc fd3d 943d
00000070: a30a f5bd 79fb 89bd ebcc 13bd c791 adbd
00000080: 85b6 fc3d 285d 713c fd60 c03c 334b c63c
00000090: e4ed 12be 5cf8 c1bc 13c6 513c a735 8dbd
000000a0: 7f24 e23d 08b0 713b c4bc 37be 3d37 eabd
000000b0: 527f 1abe 762c dbbd 5cb6 763c c23f 8abd
000000c0: 88cd 9b3d beb9 d83d c6ee 163e 536e 30bc
000000d0: feb8 603d 9dd2 c8bc 10ca 38be 2736 aabd
000000e0: d1e8 96bd 5aa8 f0bd b697 833d 45ad 12bd
000000f0: 0bbf 85bd a38b 4ebc 3b71 db3d 3313 01be
00000100: a528 32be 7987 33be b4b3 a03d b5be 063d
00000110: 2042 6fbd bf70 0e3e 41d6 3a3e 839d 87bd
00000120: 484f 013e d70b 0e3e 0e35 1fbd 5e77 0b3e
00000130: c10a d5bd 132c 493d 6d9a 5d3e 955b 703e
00000140: 8d7b 353e 6a2c cb3d 4e21 a6bd 9257 c7bb
00000150: 3f03 ab3d 5da6 d63c 385e 13bd af93 41be
00000160: 490e f3bd b98b 09be 9a12 233e fe2b cb3c
00000170: 11e5 2c3e 3b54 5c3d 0e75 a93d 8ccc 2ebc
00000180: 87a2 963d 993d fe3d bb21 f13d 0910 4f3e
00000190: f1d3 323e ce37 103e 7f13 e0bd 69c6 bc3d
000001a0: 45e6 52bc e3d2 443e ec89 323e 5415 623d
000001b0: c3f8 5fbd 1826 2f3d 6a5d c838 f94b 8f3d
000001c0: 1a1c 023e 73a3 1b3d f6ed 7e3c 6d8c cebd
000001d0: 5bad 85bd 7a15 07be b8b9 67bd 3c31 12ba
000001e0: e115 07be b6ef 06be 881b babd 6ccc f0bd
000001f0: 2aaa 963d 121e 94bd 9058 aa3d 9dda 8bbd
00000200: 3949 bfbd 00fe 13be 344d 913d 4b51 e4bc
00000210: ca9a 3e3e f366 333e e10c 463e 1119 413d
00000220: e968 cf3d 5c77 ccbc 646c 333d 7e6b 253e
00000230: b769 2d3e 285b e93d 7215 c33c b506 e9bd
00000240: 76fd 3a3d dcd2 9bbd 6a83 61bd 5f76 823d
00000250: ba8f c2bd 37dc f83d b705 0fbe 96f8 34be
00000260: 105b 3fbc 6564 bcbb ef53 34be 31f3 19be
00000270: c610 bcbc db26 09bc c7ea 8e3c bd10 313d
00000280: 87a7 583a e4a1 e3bd c207 243e 52da a23d
00000290: 3f28 933d 4650 57bd 22bc 883d 31d6 c2bd
000002a0: 71db da3c 784e ff3d 44c1 803d 402e d53c
000002b0: 70a9 d93b 1d0d c5bc 3609 9b3d 2509 d4bc
000002c0: 263d 5c3d 3056 eebc c5c3 0d3d 7415 3bbc
000002d0: 1b6a d23d 3424 f03d d3cf e03d 420e bebd
000002e0: 0c0a 043d bf86 09be 1b22 e5bd 4056 413d
000002f0: 69ac 20be 1438 fdbd 2670 c63d cae8 c5bd
00000300: c4a0 183e 1c1c 9d3d b05f f73c 4b87 f53d
00000310: 9cf2 593e 315b 563e 9dd8 063c fa34 f139
00000320: 00c4 abbd 5b89 c2bd 91b7 df3c 4e40 ac3d
00000330: 204e 3e3e d0d0 4a3e b2ab 8cbd 6075 023e
00000340: 0e1e 773c b315 203e 81ac ae3d 02c7 173e
00000350: 9806 c63d 9874 993c 38af 1b3e 1af7 4a3e
00000360: b6dc 703e 9574 4e3e 77b1 663e 19c8 cc3d
00000370: 9839 e93d 08d6 033d 85a0 523d 95d2 ae3b
00000380: b146 f53d e1ef b03d f9e8 293e 11e2 16bd
00000390: bd1b 0abe 1d28 d03c 304c 12be c94d f9bd
000003a0: 0f3c e03c 0eec 86bd 1839 3c3d 729e 13be
000003b0: ab86 943c 6f1f 07be ea56 7bbe 0917 83be
000003c0: a1d2 16bd b31d 303d 67de 6cbd b277 36be
000003d0: ee45 35be 0205 ecbd 4a6c bb3d b929 c03d
000003e0: 24c6 f9bc cf58 52bd 37b6 173d db70 093d
000003f0: 505d 27be 79ef efbd 52a1 573c 7d8b 3b3e

sequential/conv2d_1/Conv2D f4 [32, 3, 3, 32]
-0.16118585 -0.033999544 -0.006473726 -0.032645267 0.08803709 -0.15907395 -0.26686072 -0.20769626
-0.1708637 -0.10164408 -0.10673254 -0.02202458 -0.07296788 -0.06718806 -0.20582956 -0.17075798
0.02253908 -0.08344021 -0.0045443815 -0.15608533 -0.10630103 -0.048636265 -0.15766107 0.07281472
-0.009050868 -0.19832258 0.010322881 -0.08023791 -0.1536349 -0.10234359 0.06028642 0.039641134
-0.12881416 -0.03611127 -0.106660224 -0.18695107 0.0681776 -0.17591515 -0.23248555 -0.08604719
-0.037156478 -0.058613863 0.13666032 -0.066743635 -0.06768719 -0.04358548 0.18634072 -0.040815804
-0.16170461 -0.083079614 -0.22665392 -0.0038878226 -0.21251792 0.07325774 -0.021559596 0.19147468
0.02876188 -0.015189805 0.03171588 -0.039669197 -0.026852343 -0.1259938 -0.14459914 -0.13465133
0.07217029 -0.10227429 0.105504386 0.13257608 0.057668205 -0.047178898 0.02349568 0.020515343
-0.031474695 0.06505513 0.035821673 0.07660413 -0.029905904 -0.11771273 0.14896074 -0.14600942
-0.12494708 0.10263424 0.12976915 0.03114611 0.09212646 0.053812604 0.22211014 0.119201675
0.013698673 0.22099628 -0.121794455 0.09190374 0.051310964 -0.06395385 -0.056007322 -0.06011591
-0.06963048 -0.02869352 0.011522865 -0.03886518 0.05237455 0.090728156 -0.20356056 -0.03838999
-0.1602519 -0.07972715 -0.026082989 -0.09116383 -0.020376923 -0.12088117 0.029327441 0.17059492
-0.12581891 0.036622807 -0.0011081974 0.09352868 -0.15911001 0.24334751 -0.023026904 0.14192328
-0.14725168 0.036661148 -0.12125056 -0.13597107 0.13372628 -0.17111588 0.06953239 0.00061121356
-0.13243717 0.17232424 0.16045664 -0.090680905 0.024577916 -0.0067628273 -0.06665337 0.17811544
-0.038638543 -0.035585534 0.1648451 -0.23141617 0.1303581 -0.037308227 0.01268597 -0.010823039
0.17754124 0.02764205 -0.10435342 0.0689902 -0.21599077 0.09551859 0.042131137 0.113069296
0.09005273 0.028856382 -0.24021453 -0.021267101 0.14281721 0.0828964 0.20025185 -0.09800674
0.11599336 0.0088083055 -0.02719944 0.112136245 -0.24557 0.043165065 0.12585883 0.102433115
-0.13335536 0.032171316 -0.04817054 0.30433023 -0.19836023 0.006182759 0.15943596 -0.0055271816
-0.124326095 -0.123874344 0.01650066 -0.058191553 0.27857804 -0.06353437 -0.004438163 -0.0033934386
0.056133844 0.23126483 -0.016412728 -0.077623196 -0.19747357 0.12278574 -0.14264011 0.17317872
0.09807781 0.08018857 0.0692313 0.08591497 0.14078882 -0.23760872 -0.019428413 0.10562
-0.1835402 0.18271795 0.22425218 -0.21664542 0.022185573 -0.26316264 -0.15890294 -0.042451546
0.05642825 -0.022807416 -0.12771009 0.07988811 -0.22146638 0.034140278 -0.14154892 -0.14721094
0.1688977 -0.079231024 -0.18829912 0.07163847 0.22640048 -0.014046502 -0.04755394 -0.18186976
0.030909728 -0.219788 0.09317006 0.1387996 -0.10407254 0.05815886 0.012354072 0.1720132
-0.08497627 0.18292212 0.1414046 -0.07690636 -0.0132520655 -0.08898264 -0.2936457 -0.13061103
0.17012127 -0.10203287 0.08629783 -0.027646177 0.05734642 -0.23100044 0.018134028 -0.017650107
-0.17173675 0.116846085 -0.17769548 0.08587693 -0.08799828 0.09272412 -0.15057412 -0.16030027
00000000: e70d 25be 1b43 0bbd 8d21 d4bb 0bb7 05bd
00000010: ca4c b43d 48e4 22be f8a1 88be 54ae 54be
00000020: e5f6 2ebe c52a d0bd 9796 dabd e46c b4bc
00000030: 2f70 95bd e599 89bd fcc4 52be 2edb 2ebe
00000040: e0a3 b83c b3e2 aabd 09e9 94bb d5d4 1fbe
00000050: 5bb4 d9bd d236 47bd e771 21be e21f 953d
00000060: 184a 14bc 1315 4bbe 4d21 293c c653 a4bd
00000070: 7852 1dbe 8499 d1bd e5ee 763d be5e 223d
00000080: dce7 03be 69e9 13bd ad70 dabd 1a70 3fbe
00000090: b3a0 8b3d 1a23 34be b110 6ebe 8239 b0bd
000000a0: 6431 18bd 1715 70bd aff0 0b3e e3b0 88bd
000000b0: 959f 8abd b086 32bd 1ad0 3e3e 792e 27bd
000000c0: e595 25be a525 aabd f717 68be d7ca 7ebb
000000d0: 4c9e 59be 2708 963d c09d b0bc f011 443e
000000e0: 099e eb3c a9de 78bc 83e8 013d 2b7c 22bd
000000f0: 72f9 dbbc 8504 01be cc11 14be 0ae2 09be
00000100: 04ce 933d 2f75 d1bd af12 d83d 06c2 073e
00000110: 7f35 6c3d a93e 41bd 037a c03c cb0f a83c
00000120: 9ceb 00bd a03b 853d bfb9 123d a0e2 9c3d
00000130: 3afd f4bc 5f13 f1bd 2a89 183e 7e83 15be
00000140: 41e4 ffbd e731 d23d 34e2 043e 2026 ff3c
00000150: ccac bc3d 9b6a 5c3d d770 633e 0220 f43d
00000160: 6670 603c d94c 623e 5f6f f9bd 0738 bc3d
00000170: 722b 523d 3cfa 82bd ef67 65bd 1a3c 76bd
00000180: 6d9a 8ebd ac0e ebbc 66ca 3c3c 1831 1fbd
00000190: b286 563d afcf b93d 2e72 50be d23e 1dbd
000001a0: 1319 24be fd47 a3bd feab d5bc 1ab4 babd
000001b0: 81ed a6bc 8c90 f7bd 1a40 f03c 6fb0 2e3e
000001c0: acd6 00be cc01 163d ef40 91ba f78b bf3d
000001d0: bced 22be 1730 793e eba2 bcbc 5654 113e
000001e0: 25c9 16be 002a 163d 3752 f8bd 003c 0bbe
000001f0: 8bef 083e 0039 2fbe ff66 8e3d d939 203a
00000200: 9c9d 07be c475 303e bf4e 243e e9b6 b9bd
00000210: a057 c93c b59a ddbb 9081 88bd e563 363e
00000220: 7343 1ebd 23c2 11bd 27cd 283e 5cf8 6cbe
00000230: 987c 053e 83d0 18bd d1d8 4f3c 1e53 31bc
00000240: 5fcd 353e 9571 e23c 3fb7 d5bd bc4a 8d3d
00000250: af2c 5dbe 409f c33d b391 2c3d e090 e73d
00000260: 916d b83d 3864 ec3c ccfa 75be 5838 aebc
00000270: ad3e 123e 96c5 a93d d20e 4d3e c2b7 c8bd
00000280: ed8d ed3d b650 103c 5cd1 debc b0a7 e53d
00000290: b476 7bbe dacd 303d 23e1 003e 74c8 d13d
000002a0: 4f8e 08be 12c6 033d 794e 45bd 2cd1 9b3e
000002b0: f21e 4bbe be98 ca3b 2e43 233e 5c1d b5bb
000002c0: ae9e febd d5b1 fdbd 642c 873c 445a 6ebd
000002d0: c8a1 8e3e 4f1e 82bd 026e 91bb 7464 5ebb
000002e0: 9aec 653d b0d0 6c3e fc73 86bc e9f8 9ebd
000002f0: 8336 4abe 1777 fb3d 4010 12be c355 313e
00000300: 05dd c83d e839 a43d 24c9 8d3d 30f4 af3d
00000310: f22a 103e b34f 73be 5628 9fbc 4c4f d83d
00000320: f6f1 3bbe 6a1a 3b3e 5da2 653e 4cd8 5dbe
00000330: 85be b53c 41bd 86be 74b7 22be ace1 2dbd
00000340: 4f21 673d 9ed6 babc 6fc6 02be 619c a33d
00000350: 15c8 62be add6 0b3d 33f2 10be 77be 16be
00000360: 85f3 2c3e e043 a2bd 7cd1 40be 31b7 923d
00000370: 87d5 673e 4d23 66bc ecc7 42bd 113c 3abe
00000380: 6636 fd3c 1b10 61be f2cf be3d 7b21 0e3e
00000390: fc23 d5bd fc37 6e3d bc68 4a3c 3a24 303e
000003a0: 0a08 aebd f04f 3b3e 5ecc 103e 1581 9dbd
000003b0: 311f 59bc 883c b6bd bb58 96be e6be 05be
000003c0: 4534 2e3e 9cf6 d0bd ebbc b03d 3c7a e2bc
000003d0: 14e4 6a3d 618b 6cbe d08d 943c f596 90bc
000003e0: c2db 2fbe 004d ef3d cef5 35be 3ee0 af3d
000003f0: 7138 b4bd 25e6 bd3d 1a30 1abe c125 24be

sequential/conv2d_2/Conv2D f4 [64, 3, 3, 32]
-0.20431966 -0.05812382 -0.26580808 0.09751806 0.0054749036 0.119694084 -0.13362437 0.19167535
0.1627019 -0.13157728 0.04551748 -0.094747275 -0.07310096 0.012225414 0.049583696 -0.083225094
0.13496044 -0.09959298 -0.038954005 -0.10737379 0.009702824 -0.011693049 -0.008850533 -0.0024720181
-0.28586787 -0.083956294 -0.11873983 0.035378005 -0.073514715 0.023570223 -0.09755789 -0.18589069
0.041574802 0.0011739355 -0.2718968 0.08843234 -0.22064027 0.14821124 0.022990776 0.23662274
-0.2606642 0.068640284 0.032510594 -0.10370768 0.11008444 -0.06213764 -0.17461592 -0.11849812
0.14458111 -0.056796376 0.077959284 -0.11540254 -0.26393178 -0.06852599 0.0076086707 0.07692928
0.054703828 -0.027275601 -0.037113503 -0.022023458 -0.04142246 0.048800908 -0.07272198 -0.15162417
0.035661373 0.13155478 0.117281735 -0.07692526 -0.01083411 0.14667843 0.029626321 -0.022611694
-0.017824627 -0.16772634 0.071994886 0.14605284 0.037543796 0.02845099 -0.15414806 -0.14035039
0.022921544 0.032814045 0.05798443 -0.040044937 0.0037009981 -0.078555755 -0.06841409 -0.13680081
0.20282882 -0.057678603 -0.07547743 0.19689272 0.14824335 0.0540432 -0.049523603 0.005729983
-0.11024783 -0.069603786 -0.12985744 0.16704723 -0.06484292 0.1566537 0.16175553 0.053613
0.014724295 0.066387825 -0.047657482 -0.06979673 0.1782423 -0.022119895 0.032202892 -0.13852917
-0.017599262 0.1489372 -0.07526132 0.074079454 0.0057651913 -0.0008063246 -0.091204606 0.11002531
-0.10933617 0.08434315 -0.0038078558 -0.12391928 0.09168668 0.06696307 0.20251817 -0.2184314
-0.21303958 -0.07909147 -0.07117059 0.07827962 0.007934455 -0.15967125 0.16707234 0.049900535
-0.11616167 0.08210881 -0.051879738 -0.018197712 0.1649382 0.1367598 0.20363273 0.074271925
0.12545101 -0.09640006 0.072883666 0.033210058 -0.018402481 0.09153999 -0.0032216196 -0.03453891
0.1886723 0.11000448 -0.1212612 0.03816417 0.11882467 0.10570075 0.19857909 0.00921582
-0.005265911 0.01594392 0.15968399 0.042301886 -0.18209663 -0.079695955 -0.10483263 -0.027738266
0.08181436 0.12764247 -0.07538552 0.035787083 -0.097282976 0.01244502 0.08464761 0.081078246
0.013268369 0.0022931863 0.08945011 0.11181813 0.059015736 0.112266906 -0.024378218 0.15648904
0.213833 0.21777263 0.048622232 -0.09366346 0.145737 0.07126802 -0.0752145 -0.08879815
-0.02740423 -0.014827302 -0.23443925 0.13619816 -0.14544004 -0.1630556 -0.05252886 0.08138615
-0.019568983 0.0024194054 0.12830305 -0.08356101 0.10375435 -0.112441726 -0.021616109 0.0033264516
-0.18131723 0.08586137 -0.13771003 0.09486561 0.21083361 0.18417925 -0.16495703 0.15041946
-0.028538363 -0.031012028 -0.12468147 0.03790401 0.14778244 -0.14844982 0.11483694 -0.20122093
-0.16318186 -0.06198537 0.06300477 -0.19554135 0.03380599 -0.06176866 -0.11149887 -0.13739292
0.10764299 -0.11498586 0.11908166 -0.06701149 -0.12762305 -0.08886217 -0.017472172 0.12677823
-0.0077702627 -0.18540615 -0.2431294 -0.08849165 -0.0073954584 -0.068956755 -0.045530975 0.08337551
-0.16277865 -0.01046963 0.0128447 -0.24209218 -0.0058913156 -0.14859071 0.033654127 -0.017904958
00000000: 2c39 51be 3e13 6ebd ff17 88be 8cb7 c73d
00000010: d266 b33b 2c22 f53d d4d4 08be 8b46 443e
00000020: 549b 263e 32bc 06be 8970 3a3d dc0a c2bd
00000030: f5b5 95bd 1a4d 483c 4618 4b3d eb71 aabd
00000040: 1233 0a3e 68f7 cbbd 3c8e 1fbd cae6 dbbd
00000050: 98f8 1e3c 3494 3fbc d301 11bc 9501 22bb
00000060: 465d 92be 47f1 abbd de2d f3bd 87e8 103d
00000070: e28e 96bd 5716 c13c 6ecc c7bd 215a 3ebe
00000080: 574a 2a3d bdde 993a 0f36 8bbe 041c b53d
00000090: 86ef 61be b0c4 173e 2757 bc3c 3b4d 723e
000000a0: c775 85be 4793 8c3d d429 053d b164 d4bd
000000b0: f373 e13d 0a84 7ebd 84ce 32be 24af f2bd
000000c0: 120d 143e 51a3 68bd 1ea9 9f3d 2b58 ecbd
000000d0: 1122 87be 5b57 8cbd 2852 f93b 198d 9d3d
000000e0: 1f11 603d 1571 dfbc 5404 18bd 8a6a b4bc
000000f0: 99aa 29bd 76e3 473d 43ef 94bd 5e43 1bbe
00000100: a911 123d 4cb6 063e 6831 f03d fe8a 9dbd
00000110: 8d81 31bc df32 163e e6b2 f23c 293c b9bc
00000120: f404 92bc 74c0 2bbe 0e72 933d e08e 153e
00000130: 86c7 193d 0d12 e93c fdd8 1dbe 03b8 0fbe
00000140: f6c5 bb3c 0568 063d 1581 6d3d 2906 24bd
00000150: 728c 723b d7e1 a0bd b01c 8cbd 8315 0cbe
00000160: 5cb2 4f3e 6640 6cbd e993 9abd 3f9e 493e
00000170: 1bcd 173e 675c 5d3d 43d9 4abd 95c2 bb3b
00000180: 9dc9 e1bd 6e8c 8ebd 59f9 04be 6e0e 2b3e
00000190: 5dcc 84bd d469 203e 3ea3 253e 4e99 5b3d
000001a0: 2b3e 713c 57f6 873d 7e34 43bd 97f1 8ebd
000001b0: 2685 363e c834 b5bc 2ee7 033d 97da 0dbe
000001c0: 542c 90bc fe82 183e 9b22 9abd f8b6 973d
000001d0: eee9 bc3b 875f 53ba 7bc9 babd f354 e13d
000001e0: a4eb dfbd 1abc ac3d 388d 79bb 64c9 fdbd
000001f0: 3ac6 bb3d ef23 893d ec60 4f3e 7bac 5fbe
00000200: 0c27 5abe b5fa a1bd e3c1 91bd 1151 a03d
00000210: 84ff 013c dc80 23be 0315 2b3e 8164 4c3d
00000220: 2be6 edbd aa28 a83d d97f 54bd 5e13 95bc
00000230: 8fe5 283e c30a 0c3e 1985 503e e11b 983d
00000240: 3b76 003e 656d c5bd 0844 953d 4507 083d
00000250: cdc0 96bc 5179 bb3d cf21 53bb ac78 0dbd
00000260: 5033 413e 074a e13d cb57 f8bd 0852 1c3d
00000270: 595a f33d a379 d83d 5158 4b3e f3fd 163c
00000280: aa8d acbb d39c 823c 3384 233e be44 2d3d
00000290: 8a77 3abe a237 a3bd 7db2 d6bd 5c3b e3bc
000002a0: 4a8e a73d b5b4 023e b963 9abd 7a95 123d
000002b0: 4c3c c7bd 32e6 4b3c ba5b ad3d 5a0c a63d
000002c0: 9363 593c 4849 163b 9f31 b73d e700 e53d
000002d0: 7cba 713d 31ec e53d d4b4 c7bc aa3e 203e
000002e0: 0af7 5a3e caff 5e3e 1b28 473d a1d2 bfbd
000002f0: 153c 153e f8f4 913d 0f0a 9abd cedb b5bd
00000300: d67e e0bc 36ee 72bc d810 70be 8877 0b3e
00000310: 3cee 14be 0cf8 26be 8028 57bd c8ad a63d
00000320: 224f a0bc e38e 1e3b e061 033e 0922 abbd
00000330: 297d d43d d947 e6bd 4414 b1bc 9900 5a3b
00000340: 39ab 39be 16d8 af3d dc03 0dbe e748 c23d
00000350: c4e4 573e 7c99 3c3e 7fea 28be 8f07 1a3e
00000360: 49c9 e9bc f00c febc 0059 ffbd 3c41 1b3d
00000370: 4854 173e 3b03 18be a12f eb3d dc0c 4ebe
00000380: 2519 27be 5fe4 7dbd a508 813d fe3b 48be
00000390: 2678 0a3d 2201 7dbd 8559 e4bd bbb0 0cbe
000003a0: ee73 dc3d b57d ebbd 16e1 f33d 523d 89bd
000003b0: 9eaf 02be 5ffd b5bd cd21 8fbc 27d2 013e
000003c0: b09d febb 1cdb 3dbe eaf6 78be 1c3b b5bd
000003d0: 9a55 f2bb 3339 8dbd b07e 3abd c8c0 aa3d
000003e0: 72af 26be d088 2bbc 9472 523c 03e7 77be
000003f0: f00b c1bb 2a28 18be e9d8 093d 6bad 92bc

sequential/dense/BiasAdd/ReadVariableOp f4 [64]
-0.0060028434 -0.015242045 -0.0062416885 -0.013763315 0.010398301 0.0045990786 -0.008444873 -0.009446046
0.013304927 0.012248105 -0.0060045533 -0.005351098 0.019174933 -0.031165512 -0.016873473 0.019930338
-0.04128928 -0.006004347 -0.0060037537 -0.008825749 0.022049077 -0.0072438642 -0.0067861867 -0.0067700013
-0.003898457 0.019139286 0.011594546 -0.0030518472 -0.019596338 -0.0055525564 -0.02363487 -0.006002845
-0.0072395476 0.00019764288 -0.012351935 -0.0054761884 -0.0048775384 -0.00450808 -0.0005054355 0.006331648
-0.0075122137 0.015241134 -0.01740162 -0.004945762 -0.0060047624 -0.0060036075 -0.008102517 -0.014823409
-0.005558295 0.016003385 -0.0059998063 -0.00656939 -5.9279027e-05 -0.0061250483 0.0051535782 -0.00686555
-0.0060044415 0.0050426405 0.018319353 -0.008015025 -0.005227328 -0.0059509985 0.0051777586 -0.008429834
00000000: 80b3 c4bb c5b9 79bc 1487 ccbb 877f 61bc
00000010: a35d 2a3c deb3 963b 5d5c 0abc 97c3 1abc
00000020: e9fc 593c 47ac 483c d8c1 c4bb 4358 afbb
00000030: c014 9d3c d14e ffbc 3d3a 8abc f344 a33c
00000040: f31e 29bd 1dc0 c4bb 23bb c4bb e099 10bc
00000050: 44a0 b43c f05d edbb a95e debb e3d6 ddbb
00000060: 417d 7fbb fec9 9c3c 0df7 3d3c 8001 48bb
00000070: 8088 a0bc 38f2 b5bb ea9d c1bc 83b3 c4bb
00000080: ba39 edbb 5b3e 4f39 c55f 4abc 9971 b3bb
00000090: c2d3 9fbb 84b8 93bb 347f 04ba b779 cf3b
000000a0: 0429 f6bb f3b5 793c d88d 8ebc 0f10 a2bb
000000b0: 99c3 c4bb e9b9 c4bb 6bc0 04bc e2dd 72bc
000000c0: 5c22 b6bb 8819 833c 069a c4bb 0a44 d7bb
000000d0: 5fa2 78b8 a1b4 c8bb 59df a83b 68f8 e0bb
000000e0: e8c0 c4bb bc3c a53b 7812 963c 7451 03bc
000000f0: 014a abbb 9800 c3bb 30aa a93b 491d 0abc

sequential/dense/MatMul f4 [64, 2304]
-0.04557669 -0.018825643 0.024115348 -0.033957303 -0.032532554 -0.0055652927 0.042698767 -0.015819354
-0.018457064 -0.039716586 -0.0063054073 -0.05368073 -0.0020192426 0.0048988485 0.030320585 -0.0013784728
0.040283244 0.006591307 0.014879758 -0.046208296 -0.018606441 0.04014326 -0.032231778 -0.013837783
-0.045887664 0.01763583 -0.018000016 0.037671745 0.008422766 0.0007474944 -0.03453303 -0.044040635
-0.04978878 0.042189498 -0.055109996 -0.029180942 -0.0056499504 -0.03489244 0.01860229 -0.028167319
0.043967806 -0.021209331 0.00958721 0.03544896 0.00034464308 -0.0023132672 0.021606605 0.03498253
0.034828626 0.03916107 -0.01743327 -0.047170192 0.027255053 -0.024554592 -0.012419434 -0.010987643
-0.016444674 0.013020158 -0.0032461071 0.022389447 0.004575029 -0.012278708 -0.01969141 -0.035932425
0.004022084 0.0069786436 0.02378181 -0.031110197 -0.00096681865 -0.007159594 -0.022716068 0.023790933
0.035369374 0.009791197 -0.027206553 0.0152857015 -0.04099588 -0.02722093 0.019837417 -0.0034120753
-0.039398655 0.01222513 -0.024397094 -0.041111514 0.017453747 0.0054175644 -0.001983552 -0.0486168
-0.00040431615 0.009512023 -0.050333124 -0.0036712345 -0.004582785 -0.04381495 0.020014048 -0.017346807
0.027312687 -0.039639473 -0.028694721 -0.0023839972 0.037616685 -0.05257403 -0.043250315 -0.018527338
0.03684278 -0.045846906 -0.009399202 -0.004842584 -0.0021356957 -0.037861224 0.01190612 0.011251226
0.045210652 -0.040219363 -0.0244251 -0.037170243 0.027217615 0.019403566 0.03992148 -0.047604196
-0.0137994755 0.021867372 0.00564693 -0.048641372 -0.036354724 -0.018792655 -0.02964911 -0.045751907
-0.042153202 -0.04360783 0.04414476 -0.0334926 0.036519982 0.019483892 0.009717049 0.012660604
0.01875259 -0.016504783 0.038072724 -0.033937138 0.01400526 -0.0063957656 0.04077673 0.005229287
0.0057692756 -0.024416277 0.024935646 -0.025432168 0.010902036 -0.008273798 0.011917453 -0.036599033
0.029351657 -0.049929377 -0.0009877648 -0.050637186 0.000549129 0.007888716 -0.022348633 -0.010916032
-0.050498046 -0.050091315 0.023080632 0.044038996 -0.025395054 -0.043760333 -0.03037024 -0.030144727
0.020214774 -0.00088093366 -0.010149688 -0.036130875 0.03707893 0.039195213 -0.041855898 7.0544425e-05
0.0010774545 -0.01685178 -0.0034146279 -0.011394647 0.040876802 0.041012764 0.044552535 0.01790722
0.02227992 -0.011731166 0.023225078 0.015504116 -0.043820217 0.03211254 -0.026330777 0.020993397
0.047972493 0.0127658155 0.008007987 -0.051550027 0.036584195 0.002920016 0.006859939 -0.03910472
-0.029175662 -0.005909939 -0.042438112 -0.024380803 -0.0018092543 -0.001915324 0.014638662 -0.043573342
0.036049355 -0.036060162 -0.019446233 0.019014025 -0.009200065 0.007923447 0.039856806 0.008726504
-0.04623351 0.015428551 0.024146292 -0.038242526 0.01895319 0.019436993 0.017826952 -0.012675289
0.0005552956 0.0067515955 0.0434148 -0.026951913 -0.03665978 -0.013825549 -0.0008772859 0.02327945
-0.048717022 -0.026601015 -0.022471128 0.03841384 0.04163075 0.0023116034 0.03684253 0.018327583
0.012388229 0.010713183 -0.020531604 -0.016385738 0.029519485 -0.04427246 -0.01833291 -0.023958048
-0.02671237 0.003203217 -0.027234118 -0.0025375572 0.042034224 -0.022449415 -0.047224417 0.025669262
00000000: a0ae 3abd 3c38 9abc 8d8d c53c d016 0bbd
00000010: db40 05bd 0f5d b6bb e7e4 2e3d 9797 81bc
00000020: 4533 97bc dcad 22bd 979d cebb 53e0 5bbd
00000030: 4555 04bb 8586 a03b e062 f83c dfad b4ba
00000040: 0b00 253d e4fb d73b 3aca 733c e944 3dbd
00000050: 896c 98bc 426d 243d 7805 04bd deb7 62bc
00000060: b4f4 3bbd 0479 903c c574 93bc b04d 1a3d
00000070: a4ff 093c 80f3 433a 8272 0dbd f463 34bd
00000080: 52ef 4bbd e5ce 2c3d 05bb 61bd df0c efbc
00000090: 3823 b9bb 60eb 0ebd d463 983c 26bf e6bc
000000a0: 9617 343d 31bf adbc ac13 1d3c ee32 113d
000000b0: 36b1 b439 2f9a 17bb 5600 b13c d749 0f3d
000000c0: 76a8 0e3d 5c67 203d 38d0 8ebc 8835 41bd
000000d0: fd45 df3c b626 c9bc e27a 4bbc 8405 34bc
000000e0: fbb6 86bc 8052 553c a4bc 54bb 136a b73c
000000f0: 20ea 953b a22c 49bc e14f a1bc e12d 13bd
00000100: b0cb 833b 1bad e43b 12d2 c23c d0da febc
00000110: 1a72 7dba 079b eabb 0c17 babc 34e5 c23c
00000120: 7adf 103d 426b 203c 47e0 debc e170 7a3c
00000130: 4ceb 27bd 6efe debc 1482 a23c 209d 5fbb
00000140: 7c60 21bd e94b 483c 6adc c7bc 8c64 28bd
00000150: 29fb 8e3c d385 b13b 7bfe 01bb 6922 47bd
00000160: 65fa d3b9 51d8 1b3c 1b2a 4ebd 1899 70bb
00000170: 302b 96bb 4e77 33bd 80f4 a33c e41a 8ebc
00000180: dbbe df3c 005d 22bd 3111 ebbc d63c 1cbb
00000190: f413 1a3d de57 57bd 3e27 31bd a5c6 97bc
000001a0: 74e8 163d f7c9 3bbd 1cff 19bc 8aae 9ebb
000001b0: 07f7 0bbb 5f14 1bbd e311 433c 1057 383c
000001c0: ce2e 393d 0fbd 24bd 2617 c8bc d33f 18bd
000001d0: 7af7 de3c 3af4 9e3c b584 233d 9efc 42bd
000001e0: 3217 62bc 3423 b33c e209 b93b 2d3c 47bd
000001f0: b1e8 14bd 0ef3 99bc b1e2 f2bc 5a66 3bbd
00000200: d6a8 2cbd 209e 32bd 23d1 343d 892f 09bd
00000210: fa95 153d af9c 9f3c 4234 1f3c 6c6e 4f3c
00000220: 089f 993c 0a35 87bc 25f2 1b3d ab01 0bbd
00000230: 5176 653c 9293 d1bb 8005 273d 705a ab3b
00000240: 310c bd3b a504 c8bc d745 cc3c 1f57 d0bc
00000250: 749e 323c d38e 07bc 6c41 433c dee8 15bd
00000260: e372 f03c bf82 4cbd e377 81ba f068 4fbd
00000270: 6cf3 0f3a ac3f 013c 7b14 b7bc 28d9 32bc
00000280: 0ad7 4ebd 8d2c 4dbd 9813 bd3c 3c62 343d
00000290: 4a09 d0bc 093e 33bd 02cb f8bc 13f2 f6bc
000002a0: 7499 a53c 75ee 66ba e14a 26bc f8fd 13bd
000002b0: 13e0 173d 298b 203d 1771 2bbd 40f1 9338
000002c0: 6039 8d3a be0c 8abc f3c7 5fbb 9db0 3abc
000002d0: 6f6e 273d 00fd 273d b87c 363d 2ab2 923c
000002e0: 6184 b63c 1434 40bc 8542 be3c fa04 7e3c
000002f0: d47c 33bd 7088 033d a4b3 d7bc 58fa ab3c
00000300: ce7e 443d b627 513c ef33 033c 1f26 53bd
00000310: 4fd9 153d bd5d 3f3b 57c9 e03b 452c 20bd
00000320: cc01 efbc 29a8 c1bb 96d3 2dbd 40ba c7bc
00000330: 8024 edba 9c0b fbba 00d7 6f3c f679 32bd
00000340: 7da8 133d d2b3 13bd b54d 9fbc 4dc3 9b3c
00000350: dfbb 16bc 58d1 013c e440 233d 9cf9 0e3c
00000360: 595f 3dbd 08c8 7c3c 72ce c53c 32a4 1cbd
00000370: b843 9b3c 543a 9f3c d409 923c 04ac 4fbc
00000380: 4291 113a 7d3c dd3b b8d3 313d 42ca dcbc
00000390: 9128 16bd 8e84 62bc a9f9 65ba 8cb4 be3c
000003a0: 808b 47bd 5fea d9bc 5f15 b8bc d557 1d3d
000003b0: 0185 2a3d 457e 173b 31e8 163d ba23 963c
000003c0: 00f8 4a3c 5986 2f3c e531 a8bc 623b 86bc
000003d0: d9d2 f13c 0a57 35bd e62e 96bc ab43 c4bc
000003e0: e6d3 dabc 10ed 513b 161a dfbc 254d 26bb
000003f0: 142c 2c3d d6e7 b7bc 646e 41bd 5848 d23c

sequential/dense_1/MatMul f4 [1, 64]
0.052819297 -0.37502307 0.23546478 -0.24323934 0.19411455 -0.30301315 -0.28028765 -0.20617492
0.25197288 0.26740018 0.16589282 -0.055138 0.17146695 -0.21579418 0.10876811 0.17559107
-0.1008501 0.15865749 0.08477598 -0.08047211 0.35081106 -0.115802616 0.135507 -0.24098288
-0.018742645 0.18442397 0.26178893 -0.32650408 -0.12656426 -0.031575933 -0.347857 0.05371269
-0.01495985 0.32537147 -0.3393311 0.056602582 -0.18374836 -0.25458395 -0.06220317 0.14114928
-0.41449884 0.20586552 -0.38023838 0.11926052 0.25976217 -0.13566983 -0.20182472 -0.27474105
-0.104463786 0.19122364 0.021818224 -0.0014461385 0.16189755 -0.088360794 0.28479528 -0.33503026
0.10218315 0.41131982 0.24803084 0.0778674 -0.20186888 -0.4220652 0.3468872 -0.094882
00000000: 0c59 583d 0603 c0be ae1d 713e bc13 79be
00000010: f7c5 463e 8a24 9bbe dd81 8fbe 851f 53be
00000020: 9702 813e ade8 883e cfdf 293e 62d8 61bd
00000030: 0895 2f3e 26f9 5cbe d1c1 de3d 25ce 333e
00000040: 7f8a cebd 1c77 223e 079f ad3d 90ce a4bd
00000050: 829d b33e ec29 edbd 59c2 0a3e 37c4 76be
00000060: 2d8a 99bc a3d9 3c3e 3309 863e 8b2b a7be
00000070: 109a 01be c455 01bd 501a b2be d601 5c3d
00000080: 291a 75bc 1797 a63e cebc adbe 1cd8 673d
00000090: 8828 3cbe d458 82be c0c8 7ebd 7089 103e
000000a0: 3139 d4be 69ce 523e 9bae c2be dc3e f43d
000000b0: 8cff 843e 08ed 0abe 24ab 4ebe dcaa 8cbe
000000c0: 1cf1 d5bd 21d0 433e 22bc b23c 5b8c bdba
000000d0: 79c8 253e 81f6 b4bd b0d0 913e 1689 abbe
000000e0: 6645 d13d 8398 d23e ccfb 7d3e f278 9f3d
000000f0: b7b6 4ebe ee18 d8be 339b b13e 7e51 c2bd
